[2025-04-29 13:30:54,452][train_pansharpening.py][line:62][INFO] Namespace(batch_size=16, epoch_start=0, exp_name='LAGConvForWV2', gpu_id=1, learning_rate=0.0005, num_epochs=1000, pan_root='/PublicData/xmm/NBU_dataset0730', satellite='WV2', save_dir='/PublicData/xmm/project/AWFLN/experiment', total_iteration=200000.0)
[2025-04-29 13:30:54,452][train_pansharpening.py][line:63][INFO] model params: 0.174383 M
[2025-04-29 13:30:54,453][train_pansharpening.py][line:64][INFO] Network Structure: AWFLN(
  (blk_9_30_3): Sequential(
    (0): Conv2d(9, 30, kernel_size=(3, 3), stride=(1, 1), padding=(1, 1))
    (1): PReLU(num_parameters=1)
  )
  (blk_8_30_3): Sequential(
    (0): Conv2d(8, 30, kernel_size=(3, 3), stride=(1, 1), padding=(1, 1))
    (1): PReLU(num_parameters=1)
  )
  (blk2): Sequential(
    (0): Conv2d(60, 30, kernel_size=(3, 3), stride=(1, 1), padding=(1, 1))
    (1): PReLU(num_parameters=1)
  )
  (up_sample4): UpsampleBLock(
    (conv): Conv2d(8, 128, kernel_size=(3, 3), stride=(1, 1), padding=(1, 1))
    (pixel_shuffle): PixelShuffle(upscale_factor=4)
    (prelu): PReLU(num_parameters=1)
  )
  (up_sample2): UpsampleBLock(
    (conv): Conv2d(8, 32, kernel_size=(3, 3), stride=(1, 1), padding=(1, 1))
    (pixel_shuffle): PixelShuffle(upscale_factor=2)
    (prelu): PReLU(num_parameters=1)
  )
  (conv6): Conv2d(30, 8, kernel_size=(3, 3), stride=(1, 1), padding=(1, 1))
  (lu_block1): RMRS(
    (conv2_1): Conv2d(60, 20, kernel_size=(3, 3), stride=(1, 1), padding=(1, 1))
    (conv2_2): Conv2d(60, 20, kernel_size=(3, 3), stride=(1, 1), padding=(2, 2), dilation=(2, 2))
    (conv2_3): Conv2d(60, 20, kernel_size=(3, 3), stride=(1, 1), padding=(3, 3), dilation=(3, 3))
    (conv3_1): AFLB(
      (attention1): Sequential(
        (0): Conv2d(60, 9, kernel_size=(3, 3), stride=(1, 1), padding=(1, 1))
        (1): SoftAttn(
          (spatial_attn): SpatialAttention(
            (conv1): Conv2d(2, 1, kernel_size=(7, 7), stride=(1, 1), padding=(3, 3), bias=False)
            (sigmoid): Sigmoid()
          )
          (channel_attn): Eca_layer(
            (max_pool): AdaptiveMaxPool2d(output_size=1)
            (conv): Conv1d(1, 1, kernel_size=(7,), stride=(1,), padding=(3,), bias=False)
            (sigmoid): Sigmoid()
          )
          (conv): ConvLayer(
            (main): Sequential(
              (0): Conv2d(9, 9, kernel_size=(3, 3), stride=(1, 1), padding=(1, 1))
              (1): BatchNorm2d(9, eps=1e-05, momentum=0.1, affine=True, track_running_stats=True)
              (2): ReLU()
            )
          )
        )
      )
    )
    (conv3_2): AFLB(
      (attention1): Sequential(
        (0): Conv2d(60, 9, kernel_size=(3, 3), stride=(1, 1), padding=(1, 1))
        (1): SoftAttn(
          (spatial_attn): SpatialAttention(
            (conv1): Conv2d(2, 1, kernel_size=(7, 7), stride=(1, 1), padding=(3, 3), bias=False)
            (sigmoid): Sigmoid()
          )
          (channel_attn): Eca_layer(
            (max_pool): AdaptiveMaxPool2d(output_size=1)
            (conv): Conv1d(1, 1, kernel_size=(7,), stride=(1,), padding=(3,), bias=False)
            (sigmoid): Sigmoid()
          )
          (conv): ConvLayer(
            (main): Sequential(
              (0): Conv2d(9, 9, kernel_size=(3, 3), stride=(1, 1), padding=(1, 1))
              (1): BatchNorm2d(9, eps=1e-05, momentum=0.1, affine=True, track_running_stats=True)
              (2): ReLU()
            )
          )
        )
      )
    )
    (relu): ReLU(inplace=True)
  )
  (lu_block2): RMRS(
    (conv2_1): Conv2d(30, 10, kernel_size=(3, 3), stride=(1, 1), padding=(1, 1))
    (conv2_2): Conv2d(30, 10, kernel_size=(3, 3), stride=(1, 1), padding=(2, 2), dilation=(2, 2))
    (conv2_3): Conv2d(30, 10, kernel_size=(3, 3), stride=(1, 1), padding=(3, 3), dilation=(3, 3))
    (conv3_1): AFLB(
      (attention1): Sequential(
        (0): Conv2d(30, 9, kernel_size=(3, 3), stride=(1, 1), padding=(1, 1))
        (1): SoftAttn(
          (spatial_attn): SpatialAttention(
            (conv1): Conv2d(2, 1, kernel_size=(7, 7), stride=(1, 1), padding=(3, 3), bias=False)
            (sigmoid): Sigmoid()
          )
          (channel_attn): Eca_layer(
            (max_pool): AdaptiveMaxPool2d(output_size=1)
            (conv): Conv1d(1, 1, kernel_size=(7,), stride=(1,), padding=(3,), bias=False)
            (sigmoid): Sigmoid()
          )
          (conv): ConvLayer(
            (main): Sequential(
              (0): Conv2d(9, 9, kernel_size=(3, 3), stride=(1, 1), padding=(1, 1))
              (1): BatchNorm2d(9, eps=1e-05, momentum=0.1, affine=True, track_running_stats=True)
              (2): ReLU()
            )
          )
        )
      )
    )
    (conv3_2): AFLB(
      (attention1): Sequential(
        (0): Conv2d(30, 9, kernel_size=(3, 3), stride=(1, 1), padding=(1, 1))
        (1): SoftAttn(
          (spatial_attn): SpatialAttention(
            (conv1): Conv2d(2, 1, kernel_size=(7, 7), stride=(1, 1), padding=(3, 3), bias=False)
            (sigmoid): Sigmoid()
          )
          (channel_attn): Eca_layer(
            (max_pool): AdaptiveMaxPool2d(output_size=1)
            (conv): Conv1d(1, 1, kernel_size=(7,), stride=(1,), padding=(3,), bias=False)
            (sigmoid): Sigmoid()
          )
          (conv): ConvLayer(
            (main): Sequential(
              (0): Conv2d(9, 9, kernel_size=(3, 3), stride=(1, 1), padding=(1, 1))
              (1): BatchNorm2d(9, eps=1e-05, momentum=0.1, affine=True, track_running_stats=True)
              (2): ReLU()
            )
          )
        )
      )
    )
    (relu): ReLU(inplace=True)
  )
)
[2025-04-29 13:31:38,533][train_pansharpening.py][line:126][INFO] Epoch:[0]	 PSNR_WV2 = 34.1769	 BEST_PSNR = 34.1769	 BEST_epoch = 0
[2025-04-29 13:38:31,268][train_pansharpening.py][line:126][INFO] Epoch:[10]	 PSNR_WV2 = 39.3010	 BEST_PSNR = 39.3010	 BEST_epoch = 10
…
